models/torch/data.pth (torch, 35022 bytes, 10 tensors)

layers.0.weight f4 [8, 585]
0	0xbf0c492f	-0.5479917
1	0xbcf0eed7	-0.029410763
2	0x3f7272c3	0.9470636
3	0x3d538451	0.05163986
4	0x3f31d274	0.6946175
5	0xbea044cb	-0.31302485
6	0xbe8f484b	-0.27984843
7	0x3c47c39a	0.012192631
8	0xbb1120ce	-0.0022144797
9	0x3e73f11c	0.23822445
10	0xbed366e3	-0.41289434
11	0xbd9e9f46	-0.07745223
12	0x3de08753	0.10963311
13	0x3e45033b	0.19239514
14	0x3d858c96	0.06520955
15	0x3f17d7d4	0.593137
16	0xbd87f3c2	-0.0663829
17	0x3d6dedc3	0.058088075
18	0xbf0817d4	-0.5316136
19	0x3dc37986	0.09544663
20	0xbe1fa2e6	-0.15589485
21	0xbed5a595	-0.41727892
22	0xbed27e62	-0.41112047
23	0xbd19deca	-0.037565984
24	0x3da4d8d3	0.080491684
25	0x3db78175	0.08960239
26	0x3f248029	0.64258057
27	0xbed60586	-0.4180109
28	0xbe04a8b2	-0.12954977
29	0x3c99ed12	0.018789802
30	0xbf056121	-0.5210133
31	0xbe166dc4	-0.1469031
32	0x3e1f08c2	0.15530685
33	0xbc9ccdeb	-0.019141158
34	0x3e853b57	0.26021835
35	0xbe55d5ce	-0.20882341
36	0x3df01adc	0.11723873
37	0xbec93209	-0.39295986
38	0x3e70a02c	0.234986
39	0xbe2404f5	-0.16017516
40	0xbe31b1e9	-0.17353024
41	0x3f07d434	0.5305817
42	0xbdfd8bb0	-0.12380159
43	0x3e21e0a4	0.1580835
44	0x3e3117af	0.17294191
45	0xbec09243	-0.3761159
46	0xbe1454f9	-0.1448554
47	0x3d46df8a	0.048553027
48	0x3ebb9395	0.36636034
49	0x3ee1130c	0.43959844
50	0x3e2257dd	0.1585383
51	0x3ea4f1bf	0.32215688
52	0x3da3b46d	0.07993398
53	0x3dec20b5	0.11529676
54	0xbea73511	-0.32657674
55	0xbdbb7edc	-0.09155056
56	0x3e82611f	0.25464723
57	0x3e0e57d4	0.13900691
58	0x3e177242	0.1478968
59	0x3e752bf9	0.23942555
60	0xba3a051e	-0.00070960994
61	0x3f179d09	0.5922399
62	0x3e92482a	0.28570682
63	0xbd7f7bbc	-0.06237386
64	0xbd81f244	-0.063450366
65	0xbf8088e1	-1.0041772
66	0xbf4000fb	-0.75001496
67	0xbeba1cb1	-0.36350015
68	0x3e60cc97	0.21953045
69	0xbd5e57dc	-0.054283008
70	0xbd9737ae	-0.07383667
71	0xbed729db	-0.4202412
72	0xbecc322d	-0.3988203
73	0x3edd3680	0.43205643
74	0x3ee614f5	0.44937864
75	0xbe01435f	-0.12623356
76	0x3ece2551	0.40262845
77	0x3d6cf830	0.057853878
78	0xbe6adc19	-0.22935523
79	0x3e0a24b9	0.13490571
80	0x3cb811be	0.022469398
81	0x3d3e22e1	0.046419982
82	0xbed6817f	-0.41895673
83	0xbf14517e	-0.5793685
84	0xbc1da60d	-0.009622109
85	0x3e885826	0.26629752
86	0xbde24cc5	-0.11049799
87	0x3e34f30a	0.17670837
88	0x3e455933	0.19272308
89	0xbdf18e10	-0.117946744
90	0xbed5b968	-0.41743016
91	0x3e26fbd8	0.16307008
92	0xbecfb11e	-0.40564817
93	0xbdd3b281	-0.10336781
94	0xbf511f5b	-0.8168847
95	0x3d99a436	0.07502024
96	0x3d9c2849	0.07624871
97	0x3d93b4fc	0.072122544
98	0x3eb5e2df	0.3552465
99	0x3e20e772	0.1571329
100	0xbef0eb44	-0.47054493
101	0xbec8348d	-0.39102593
102	0x3e0a0256	0.13477454
103	0xbd1c6b8c	-0.038188502
104	0x3e06dc87	0.13170062
105	0xbe7827e1	-0.24233963
106	0x3dbb7b98	0.09154433
107	0x3edb68cc	0.4285339
108	0xbd183b9b	-0.03716622
109	0xba228fdb	-0.00062012457
110	0xbf0761a3	-0.52883357
111	0xbe7b48da	-0.2453951
112	0x3d70a2e0	0.05874908
113	0x3e3b96da	0.18319264
114	0x3ed1ab45	0.4095098
115	0x3eaefa9c	0.34175575
116	0xbd8cbde9	-0.0687216
117	0xbf91b445	-1.1383139
118	0x3d9e9b88	0.07744509
119	0x3cb28a91	0.02179459
120	0xbd37a3b1	-0.044833843
121	0xbe745f8c	-0.23864573
122	0xbdd8d8a0	-0.10588193
123	0xbeac5e64	-0.33665764
124	0xbdd00a3b	-0.10158201
125	0xbebdd16e	-0.37073845
126	0xbe2a2a4a	-0.16617694
127	0xbd1aaa3d	-0.037760008
128	0xbf3879d8	-0.7206092
129	0x3dc52dcd	0.096278764
130	0x3d580267	0.052736666
131	0x3db6884f	0.089127176
132	0xbd94cca7	-0.07265597
133	0x3f504c74	0.8136666
134	0x3ead677f	0.33868024
135	0x3e48da1e	0.19614455
136	0xbcc43fef	-0.023956267
137	0xbd078d94	-0.033094004
138	0x3dbf858c	0.09351644
139	0x3ec1cc6c	0.37851274
140	0xbf61bacc	-0.88175654
141	0xbe77c6bd	-0.24196906
142	0xbe12d919	-0.14340629
143	0x3ee161c3	0.440199
144	0xbe35bd8c	-0.17748088
145	0x3f83524a	1.0259488
146	0xbe27c486	-0.16383561
147	0x3d048464	0.03235282
148	0xbcd7bb3d	-0.0263344
149	0x3e07bec5	0.13256367
150	0xbf663a76	-0.89932954
151	0x3e1f64fc	0.15565866
152	0x3f40f1e2	0.75369084
153	0x3f24920f	0.6428537
154	0x3d298a7f	0.041391846
155	0x3e953101	0.2913895
156	0x3ed7c20e	0.4214024
157	0xbebefb69	-0.37301186
158	0x3e1d1116	0.15338549
159	0x3eb0185d	0.34393588
160	0x3e52a519	0.20570792
161	0x3f183da8	0.5946908
162	0x3dfe547e	0.12418459
163	0x3d0fa81d	0.035072435
164	0x3c8c8c08	0.017156616
165	0xbf1bb617	-0.6082472
166	0x3eb4eadb	0.3533543
167	0x3ce46a84	0.027882822
168	0xbda7d3d3	-0.08194699
169	0x3d2c4450	0.042057335
170	0xbd0e01cf	-0.034669694
171	0x3ec1b8e2	0.37836367
172	0xbd75c48b	-0.06000189
173	0x3f2ad291	0.6672755
174	0x3dd65e45	0.10467199
175	0xbdcf70d2	-0.10128941
176	0x3ef06c7d	0.4695777
177	0x3e1c723f	0.15277956
178	0xbec236fe	-0.3793258
179	0xbe4fbdf4	-0.20287305
180	0x3e03f905	0.12887962
181	0x3eab417f	0.33448407
182	0xbea1f2b9	-0.31630495
183	0x3e29fd24	0.16600472
184	0x3d6b2da4	0.057416573
185	0x3dc96603	0.0983391
186	0x3e102feb	0.14080779
187	0x3db1ea48	0.08687264
188	0x3e1e78e2	0.154758
189	0x3cb1f7b4	0.02172456
190	0x3d0daa78	0.0345864
191	0xbeb944fd	-0.36185446
192	0x3e3eafca	0.18621746
193	0x3e4d1e63	0.20031123
194	0x3f265c52	0.6498462
195	0xbe0cc611	-0.13747431
196	0x3e078fe7	0.13238488
197	0xbed96939	-0.4246309
198	0x3e199407	0.14997874
199	0x3ebcefbf	0.36901662
200	0xbd75ec37	-0.060039725
201	0x3e0f3f60	0.1398902
202	0x3e09b783	0.1344891
203	0xbec3ee3b	-0.38267693
204	0x3d817691	0.06321443
205	0x3dc74a3d	0.09730957
206	0xbdc3d132	-0.09561385
207	0x3e93d34d	0.28872147
208	0x3e684874	0.22683889
209	0xbe1152d9	-0.1419176
210	0x3dc2676b	0.09492382
211	0xbebd157b	-0.3693045
212	0x3c8c881f	0.017154751
213	0xbd406404	-0.046970382
214	0x3ad7ee5a	0.0016474233
215	0x3dafbe88	0.08581263
216	0xbed18ef6	-0.40929383
217	0x3e1cc2dd	0.1530871
218	0xbe1e8789	-0.1548139
219	0xbf6e34a5	-0.9304908
220	0x3db3696f	0.08760344
221	0x3e181198	0.14850461
222	0xbe195fd0	-0.14977956
223	0x3e84a6a4	0.25908387
224	0xbf01c9ef	-0.5069875
225	0x3e08c8d7	0.13357864
226	0xbf0a4633	-0.54013366
227	0xbec3c5a7	-0.38236734
228	0x3dacdba3	0.0844033
229	0xbf20e6a3	-0.62851924
230	0x3f042815	0.5162366
231	0xbedb5057	-0.42834732
232	0x3d7b392a	0.061333813
233	0xbdc7d702	-0.09757806
234	0xbe41f9b7	-0.18942915
235	0xbd8bef17	-0.06832712
236	0x3b5285dd	0.0032123246
237	0xbd0fa4bb	-0.03506921
238	0xbe342865	-0.17593534
239	0xbead6c32	-0.3387161
240	0xbd1fbf8f	-0.039001044
241	0x3e57865f	0.21047352
242	0x3e721d17	0.2364391
243	0x3e690235	0.22754748
244	0xbb947435	-0.0045304545
245	0xbd883f24	-0.06652668
246	0x3e7522d4	0.23939067
247	0x3c69e655	0.014276107
248	0x3e9eda32	0.31025845
249	0xbc3b6aa2	-0.011438997
250	0x3e34ad8e	0.17644331
251	0x3f055042	0.5207559
252	0x3f17ec98	0.5934539
253	0xbbc91a4e	-0.006137169
254	0xbccc04ce	-0.024904635
255	0xbd8cd7c3	-0.06877091

layers.0.bias f4 [8]
0	0x3de77b6c	0.11302838
1	0x3df4288a	0.11921795
2	0xbc3d7c31	-0.011565254
3	0x3e6c3426	0.23066768
4	0x3f0a93a9	0.5413156
5	0x3d454596	0.048162065
6	0xbc7b19fa	-0.0153260175
7	0x3f0c91e6	0.54910123

layers.1.weight f4 [8, 8]
0	0x3e957db5	0.2919747
1	0xbfa1ebf5	-1.2650133
2	0xbda02fe3	-0.07821634
3	0x3e9d50c0	0.3072567
4	0x3fa01312	1.250582
5	0xbfeadbfb	-1.8348383
6	0xbe1b12ad	-0.15143843
7	0x3fa91c2e	1.3211725
8	0x3fb1718d	1.3862778
9	0xbf147f94	-0.5800717
10	0xbf690bf1	-0.91033846
11	0x3f9afb2b	1.21079
12	0xbfbe341a	-1.485965
13	0xbd040bab	-0.03223769
14	0x3efd07b6	0.49419945
15	0x3f869a05	1.0515753
16	0x3fc80020	1.5625038
17	0x3f12ef22	0.5739614
18	0xbfc9ec46	-1.577523
19	0x400d0ef0	2.2040367
20	0x3f872489	1.0558025
21	0xbf3222bc	-0.6958425
22	0xbf769a57	-0.96329254
23	0x3f97b667	1.185254
24	0x3f8aafcf	1.0834903
25	0xbf837b2f	-1.0271968
26	0xbfa5e708	-1.296113
27	0x3fb83015	1.4389673
28	0x3f2083c8	0.6270108
29	0x3ecba0e6	0.39771193
30	0xbfff1398	-1.9927855
31	0xbf665573	-0.89974135
32	0x3fa3c5c4	1.2794728
33	0xbffa85f9	-1.9572135
34	0xbeca4ee4	-0.39513314
35	0x3ee7ca66	0.45271605
36	0xbf8fb865	-1.1228148
37	0xbfa4813e	-1.2851942
38	0x3e6e76b1	0.23287465
39	0x3fa3e7ee	1.2805154
40	0x3f27956b	0.6546237
41	0xbf2faf9d	-0.6862734
42	0xbf000402	-0.50006115
43	0xbcc9f13e	-0.024651166
44	0x3e9d3502	0.30704504
45	0xc00aa07b	-2.166045
46	0xbf4e1f9e	-0.80516994
47	0x3f8594ce	1.0436037
48	0xbf6312dc	-0.8870065
49	0x3f514f98	0.81762075
50	0x3eac48e1	0.33649352
51	0xbd0f7108	-0.035019904
52	0x3fbd0b26	1.4769027
53	0xbf69206e	-0.9106511
54	0xbfc567e8	-1.5422335
55	0x3fbdc0e0	1.4824486
56	0xbf7bb4ed	-0.98322946
57	0xbfb0e636	-1.3820255
58	0x3fe24397	1.7676877
59	0xbf74d7e8	-0.95641947
60	0x3fb1a9d7	1.3879956
61	0x3f17be7c	0.5927503
62	0x3fd901c8	1.6953669
63	0x3fbacbb9	1.4593421

layers.1.bias f4 [8]
0	0x3efa9c53	0.4894739
1	0xbd81963d	-0.06327484
2	0x3f4c1f9e	0.79735744
3	0x3ea500e0	0.3222723
4	0x3e629cc8	0.2213012
5	0xbee3f359	-0.44521597
6	0x3eb88cd9	0.36044958
7	0x3f48cce2	0.78437626

layers.2.weight f4 [8, 8]
0	0x3f5947f8	0.8487544
1	0x3f9db324	1.2320294
2	0x3e34d371	0.17658783
3	0xbfd27f63	-1.6445125
4	0x3f95ff73	1.1718582
5	0xbf52e5d9	-0.8238197
6	0xbfc1a5cd	-1.5128723
7	0x3fefc87c	1.8733058
8	0x3fcecf02	1.6156924
9	0x3f45a1bc	0.7719991
10	0x3fa01262	1.250561
11	0xbf9d56d4	-1.2292123
12	0x3f7e8cba	0.9943348
13	0x3fd1724b	1.6363004
14	0x400f27e9	2.236811
15	0x3f0c1f34	0.5473511
16	0x3f8131c3	1.0093311
17	0x3fbb7c77	1.4647359
18	0x3f220892	0.6329433
19	0x40346280	2.818512
20	0x3fe471dc	1.7847247
21	0x3f893851	1.0720311
22	0xbf1bb5a2	-0.60824025
23	0xbe456dd2	-0.19280174
24	0xbf8564ae	-1.042135
25	0xc00e7055	-2.2256062
26	0xbe246e9f	-0.16057824
27	0xbfb4acf1	-1.4115278
28	0xc011cbcc	-2.2780638
29	0xc01657d6	-2.349111
30	0x3f881343	1.0630878
31	0x3f81d01f	1.0141639
32	0xbf2b121b	-0.668245
33	0xbf14a79e	-0.58068264
34	0xbf815f89	-1.010728
35	0xbf947146	-1.1597068
36	0xbed7b242	-0.42128187
37	0xbfabca93	-1.3421196
38	0xbf08742d	-0.5330227
39	0x3fe4b7d7	1.7868603
40	0xbfab3b5d	-1.3377491
41	0x3eaed68b	0.34148058
42	0x3faa4b3d	1.3304211
43	0x3f19816b	0.599631
44	0xbf69902c	-0.91235614
45	0xbfa72a56	-1.3059795
46	0x3d90bed9	0.07067651
47	0xbf662d66	-0.8991302
48	0xbe03f160	-0.12885046
49	0x3f99b45f	1.200817
50	0x3f8775cf	1.0582827
51	0x3f356e99	0.70871884
52	0x3f866498	1.0499449
53	0x3e95567d	0.29167548
54	0xbf47c4b3	-0.78034514
55	0xbf8e4081	-1.1113435
56	0x3fa0c4e5	1.2560087
57	0xbfac69e3	-1.3469814
58	0x3f86ab59	1.0521041
59	0x3f148bbe	0.5802573
60	0xbf3ca315	-0.73686343
61	0x3ecf156a	0.40446025
62	0x3fd8a51f	1.6925391
63	0x3f7c0740	0.9844856

layers.2.bias f4 [8]
0	0x3fbb81e0	1.464901
1	0xbe8438c9	-0.25824574
2	0x3eadbab9	0.3393152
3	0x3fcce38b	1.6006941
4	0x3f50055a	0.81258166
5	0x4016e0c8	2.3574696
6	0x3eb5c6c6	0.35503215
7	0x3f5c04bd	0.8594473

layers.3.weight f4 [8, 8]
0	0x3e00f913	0.12595014
1	0x3f196ac9	0.59928566
2	0xbfec23f4	-1.8448472
3	0x3fe687c2	1.801018
4	0x3f9d77b7	1.2302159
5	0xbe7f3a80	-0.2492466
6	0xbfa97ff7	-1.3242177
7	0x3e23b3af	0.15986513
8	0x3f3399c8	0.70156527
9	0x3fabb534	1.3414674
10	0xbeff4782	-0.49859244
11	0xbf6c86c1	-0.9239312
12	0xbf0c4120	-0.5478687
13	0xbfae2c0b	-1.3607191
14	0xbf4abbae	-0.79192626
15	0x3fbea8cf	1.4895266
16	0x3de43564	0.11142996
17	0x3f322ee8	0.69602823
18	0x3f55d05f	0.83521074
19	0xc01351d9	-2.3018706
20	0xbfc56841	-1.5422441
21	0x3f496a93	0.78678244
22	0x3fa4dc42	1.2879717
23	0xbf512ab2	-0.8170577
24	0xbfb40449	-1.4063808
25	0xbda179d2	-0.078845635
26	0x3dd57c3f	0.10424089
27	0x3f66797c	0.9002912
28	0xbf30d91f	-0.690813
29	0x3ff42238	1.9072943
30	0xbe465974	-0.19370061
31	0x3fb3cebd	1.4047467
32	0xbf0900ef	-0.5351705
33	0x3f56b417	0.83868545
34	0x3fc823ed	1.5635964
35	0xbf720eeb	-0.94554013
36	0xbf4c6e81	-0.79856116
37	0xbfe2d773	-1.7722
38	0x3f095763	0.53648967
39	0x3e9c8df9	0.30577067
40	0x3eec8c6f	0.46200892
41	0xbf7ec8f5	-0.99525386
42	0x3e05a247	0.13050185
43	0x3ef2ed14	0.474465
44	0x3ec51180	0.38489914
45	0x3fe93291	1.8218557
46	0x3f13b2f1	0.5769492
47	0xc0107fa7	-2.2577913
48	0x40175e9d	2.3651497
49	0xbf10be96	-0.5654081
50	0x3dbc670a	0.09199341
51	0x3ee9a8fb	0.45636734
52	0x3fc082f9	1.503997
53	0x3eb9d388	0.36294198
54	0xbf7354f4	-0.95051503
55	0xbe319329	-0.17341293
56	0xbed36448	-0.41287446
57	0x3dbaebe9	0.091270275
58	0xbf839dea	-1.0282567
59	0x3f5e72fa	0.8689419
60	0x3fa2e732	1.2726805
61	0xbf4f20e3	-0.80909556
62	0xbfa3a100	-1.2783508
63	0xbd2db847	-0.04241207

layers.3.bias f4 [8]
0	0xbd6c1496	-0.05763682
1	0x3f770e0c	0.9650581
2	0x3ec138d4	0.3773867
3	0x3fd2bfa5	1.6464735
4	0x3c20c3c3	0.009812298
5	0x3f7dd0c0	0.9914665
6	0x3fbbb639	1.4664985
7	0x3ac3149f	0.0014883465

layers.4.weight f4 [42, 8]
0	0x3e4ef7b5	0.2021168
1	0x3e5570d3	0.2084382
2	0xbd78783c	-0.06066154
3	0xbc0b2e86	-0.008494979
4	0x3e383ba7	0.17991506
5	0xbf321f5a	-0.6957909
6	0xbe0e5456	-0.13899359
7	0x3efd9269	0.49525765
8	0x3ed0ebcf	0.40804908
9	0xbf898434	-1.074347
10	0xbe95f723	-0.29290113
11	0x3ecd306b	0.40076002
12	0xbe73943a	-0.23787013
13	0x3df6acf6	0.120447084
14	0xbe661f9c	-0.22472996
15	0x3e5e2cef	0.21696828
16	0x3f4dca91	0.80387217
17	0xbec9f548	-0.39444947
18	0xbe48d4b4	-0.1961239
19	0x3c7452e2	0.014912339
20	0xbeeb18bf	-0.45917317
21	0xbf886ceb	-1.0658239
22	0xbfa4350a	-1.2828686
23	0x3f11d5e5	0.56967
24	0x3e8d769f	0.27629563
25	0xbec7da18	-0.3903358
26	0xbe05e97e	-0.13077351
27	0xbe46bd5e	-0.19408175
28	0xbe22c4bd	-0.15895362
29	0x3f15d61f	0.5852985
30	0xbd16472f	-0.03668898
31	0x3f35015f	0.7070522
32	0x3ec0dc8c	0.37668264
33	0xc00b05ee	-2.172237
34	0x3cc56055	0.024093786
35	0xbe8ef61d	-0.27922145
36	0xbe8a32f1	-0.2699199
37	0xc028735b	-2.6320407
38	0x3f18c98f	0.59682554
39	0x3edebf9f	0.4350557
40	0xbf7abe85	-0.9794696
41	0x3efffdc3	0.49998292
42	0xbeb8f0da	-0.36121255
43	0x3f1d1ae1	0.6136914
44	0xbec69838	-0.3878801
45	0x3c532654	0.012887556
46	0xbf62c199	-0.88576657
47	0x3c2f44c5	0.010697548
48	0x3e68e529	0.22743668
49	0xbe1aa65a	-0.1510252
50	0xbd7d9304	-0.061907783
51	0x3de1a716	0.11018197
52	0x3eb542eb	0.35402617
53	0xbf709add	-0.939863
54	0x3f1b8eae	0.60764587
55	0xbe9e4b65	-0.30916896
56	0xc00e91be	-2.2276454
57	0x3e46a3fd	0.19398494
58	0xbfabd16e	-1.3423288
59	0x3f552b8c	0.8326957
60	0xbfb6b376	-1.4273517
61	0xbfcbba71	-1.5916272
62	0xbfa10ee8	-1.2582674
63	0xbf01f48f	-0.5076379
64	0xbed0b157	-0.407603
65	0x3d8225db	0.063548766
66	0xbec196b2	-0.37810284
67	0x3eabb907	0.33539602
68	0x3eab446a	0.33450633
69	0x3e4a5413	0.19758634
70	0xbebaac3d	-0.36459532
71	0xbb10b1c5	-0.0022078615
72	0x3efdaf61	0.49547866
73	0xbf1aa8d7	-0.6041388
74	0x3ee885ce	0.45414585
75	0xbed559aa	-0.4166997
76	0x3e7172d3	0.23578958
77	0xbe1c9060	-0.1528945
78	0x3ea4deaa	0.3220113
79	0x3ed679db	0.41889843
80	0x3e6651d4	0.22492152
81	0x3f0635a3	0.52425593
82	0xbf216c80	-0.6305618
83	0xbe61043d	-0.21974273
84	0xbf79f1ad	-0.9763439
85	0xbeefb931	-0.46820977
86	0x3d814c6f	0.06313407
87	0xbeee7704	-0.46575177
88	0xbf7f83a9	-0.9981027
89	0xbed5e2a4	-0.41774476
90	0xbeba82c6	-0.36427897
91	0x3f10c5be	0.5655173
92	0xbf991480	-1.1959381
93	0x3f1d16c4	0.6136286
94	0xbf2b2c43	-0.66864413
95	0xbf111961	-0.5667935
96	0xbc543003	-0.0129509
97	0x3f147f38	0.5800662
98	0xbfeb53a5	-1.8384901
99	0xbe53fc7e	-0.20701787
100	0x3e99573c	0.29949367
101	0x3c07552b	0.008260052
102	0xbef63801	-0.48089603
103	0xbf905fff	-1.1279296
104	0x3f3dae5b	0.7409417
105	0xbfba5b34	-1.4559083
106	0xbf3d3132	-0.7390319
107	0x3f13f7e2	0.57800114
108	0xbeb731be	-0.35780138
109	0xbfe7c396	-1.8106563
110	0xbe095ed6	-0.13415083
111	0xbf4cc3b9	-0.7998615
112	0xbe90ffce	-0.28320163
113	0xbf3557b3	-0.70836943
114	0x3ee0c6ed	0.43901768
115	0xc00b7206	-2.1788344
116	0x3eb8bf38	0.36083388
117	0xc001bd9e	-2.0271983
118	0xbe5202d5	-0.20508893
119	0xbe48a987	-0.1959592
120	0x3f199a36	0.6000093
121	0x3e9f9ae6	0.31172866
122	0xbdf476db	-0.119367324
123	0xbe923732	-0.28557736
124	0xbead863e	-0.3389148
125	0x3ec3f924	0.38276017
126	0xbfb64dc3	-1.4242481
127	0x3ec95c0e	0.39328045
128	0x3ef8c125	0.48584858
129	0x3eda1745	0.42595878
130	0xbec4340d	-0.38320962
131	0x3e3da288	0.18519032
132	0xc02280e6	-2.5391173
133	0x3daa0ade	0.08302854
134	0xbf80b0f7	-1.0054005
135	0xbf2adad7	-0.66740173
136	0x3f1c1970	0.60976315
137	0x3eb63f12	0.35594994
138	0xbe337449	-0.17524828
139	0xc04780fb	-3.1172473
140	0x3d7aca26	0.06122794
141	0xbebdc941	-0.37067607
142	0xbdfec1d4	-0.124393135
143	0x3d405dc7	0.046964433
144	0x3e1c3ea6	0.15258273
145	0xbf21ccdf	-0.63203233
146	0xbee789d0	-0.4522233
147	0xbe77793f	-0.24167345
148	0xbeac3273	-0.3363224
149	0x3f090f96	0.5353941
150	0x3ec68484	0.38772976
151	0xbe57f05b	-0.21087782
152	0x3df7f3e1	0.12107063
153	0xbf59df43	-0.85106295
154	0x3d746c7f	0.059673782
155	0x3eb17b30	0.34664297
156	0x3ec1e604	0.378708
157	0xbf085fe0	-0.53271294
158	0xbe38dbd4	-0.18052608
159	0x3daa9520	0.083292246
160	0xbe9c235b	-0.30495724
161	0x3da17d1a	0.07885189
162	0xbf8dc0c2	-1.107445
163	0xbfb1f328	-1.390233
164	0xbfeea03b	-1.8642648
165	0xbff80c7f	-1.9378814
166	0x3f46abd1	0.7760592
167	0xbebe1e45	-0.3713247
168	0xbfcea96e	-1.6145456
169	0xbf8f0fcf	-1.1176699
170	0x3dbb1292	0.091344014
171	0xbd64d5bf	-0.055867907
172	0xbeea1765	-0.45720974
173	0x3f008a76	0.50211275
174	0x3e701930	0.23447108
175	0xbf007c1d	-0.5018938
176	0xbcf73828	-0.030178145
177	0xbea3d4de	-0.31998342
178	0xbf93fc6f	-1.1561412
179	0xbf939a7a	-1.1531518
180	0xbf06573a	-0.5247685
181	0x3d92e710	0.07172978
182	0x3f2adb56	0.6674093
183	0xbe29f365	-0.16596754
184	0xbe8af802	-0.2714234
185	0x3e18da1d	0.14926954
186	0xbfc0e0ea	-1.5068638
187	0x3f0c7791	0.54869944
188	0x3de2b232	0.11069144
189	0xbf0deac2	-0.55436337
190	0x3deb378e	0.114852056
191	0xbfa2c356	-1.2715862
192	0x3d94dc50	0.07268584
193	0x3e187cba	0.1489133
194	0xbdffa311	-0.12482274
195	0xbe813f5d	-0.25243655
196	0x3eb6e68b	0.35722765
197	0x3f1a31ce	0.60232246
198	0xbe09f6d6	-0.13473067
199	0x3f411e75	0.754371
200	0xbeb82f14	-0.35973418
201	0xbea96115	-0.3308188
202	0x3f081ab0	0.5316572
203	0x3dabcc16	0.08388536
204	0xbfcbbd02	-1.5917056
205	0x3ed8f2ef	0.42372844
206	0xbfa6355b	-1.2985033
207	0xbc8c53d6	-0.01712982
208	0x3e61754f	0.22017406
209	0xbf4f6f10	-0.8102884
210	0x3f02fa1f	0.51162905
211	0x3ec760a3	0.38940915
212	0xbec49fd3	-0.38403186
213	0xbf1b0495	-0.60553867
214	0xbf4ef143	-0.80836886
215	0x3f03257f	0.5122909
216	0xbe83c36b	-0.2573503
217	0xc01c9019	-2.446295
218	0x3e5b5ca7	0.21422063
219	0xbfa0408f	-1.2519702
220	0x3f0fb6b0	0.56138134
221	0xbd8ecdeb	-0.069728695
222	0xbf86c974	-1.0530229
223	0xbe3b838e	-0.18311903
224	0x3d79129c	0.060808763
225	0x3d9048b1	0.07045115
226	0x3e24b66a	0.1608521
227	0x3f317ea8	0.6933389
228	0xbf9c9b7f	-1.2234954
229	0xbf19eb85	-0.60125
230	0xbfc77e26	-1.5585372
231	0xbfc24060	-1.5175896
232	0xbf13369e	-0.57505214
233	0x3ed51b61	0.4162245
234	0xbf5449a5	-0.8292487
235	0xc0166f2c	-2.3505354
236	0x3eed472c	0.46343362
237	0xbd5131cb	-0.051072877
238	0x3e7b5cc7	0.2454711
239	0xbfd46dec	-1.6596045
240	0xbf84c108	-1.0371408
241	0xc0113cf5	-2.2693455
242	0x3f125149	0.5715528
243	0xbfdf64d7	-1.7452649
244	0xbfb1eed4	-1.390101
245	0x3edfb243	0.4369069
246	0x3e131e94	0.14367133
247	0xbf96c4f6	-1.1778858
248	0x3d91291e	0.070879206
249	0xc03dc02a	-2.9648538
250	0x3df72523	0.1206763
251	0x3e6d6c1a	0.23185769
252	0x3ee2f952	0.4433084
253	0xbf66af93	-0.90111655
254	0xbe8840ce	-0.26611942
255	0x3f036361	0.51323515

layers.4.bias f4 [42]
0	0x3f0098a4	0.5023291
1	0xbd9d0be3	-0.07668283
2	0xbc9077c8	-0.017635241
3	0xbdd8f731	-0.10594023
4	0xbe7436b2	-0.2384899
5	0xbecf95bf	-0.40543935
6	0xbdec6e94	-0.115445286
7	0x3f1b6309	0.6069799
8	0xbec0e012	-0.37670952
9	0x3f0fb03d	0.56128293
10	0xbd46d06a	-0.048538603
11	0x3f0019b8	0.50039244
12	0xbf191d83	-0.59810656
13	0x3e7334d2	0.23750618
14	0xbdec8f27	-0.11550742
15	0xbef34d8a	-0.47520095
16	0xbdc4f7b8	-0.09617561
17	0xbe9f35fb	-0.3109587
18	0xbdc2f131	-0.0951866
19	0xbe9a4493	-0.30130443
20	0xbe4f3ee2	-0.20238832
21	0x3e6fcc4f	0.23417781
22	0xbea00c05	-0.3125917
23	0x3f2faac0	0.6861992
24	0xbf5279c6	-0.8221706
25	0x3cca6aaa	0.024709065
26	0xbf8f24ec	-1.1183143
27	0xbcb407cf	-0.02197638
28	0x3e6fefb9	0.2343129
29	0x3e0798ba	0.13241854
30	0x3e90c636	0.28276223
31	0xbd50cc2c	-0.050975963
32	0xbdb2036c	-0.08692059
33	0xbf0f8417	-0.5606093
34	0x3d887077	0.06662076
35	0x3f0ad1f5	0.5422662
36	0xbf41b202	-0.75662243
37	0x3ed118ff	0.40839383
38	0x3ef44d10	0.47715044
39	0x3fb22345	1.3917013
40	0x3f42be7b	0.760719
41	0xbf1e9406	-0.61944616
