models/torch/data.pth (torch, 19946 bytes, 6 tensors)

l1.weight f4 [8, 364]
000000 62 5c 1f bd f6 e2 03 be f3 7b 6d be 5c 8b 18 3f
       -0.038906462 -0.12879547 -0.23191814 0.59587646
000010 a7 11 5a be 0c e1 ae 3e 88 f6 e6 3e 65 ce bc 3d
       -0.21295796 0.34156072 0.45109963 0.09219054
000020 13 12 13 be ad 70 06 3f be 36 65 3e 85 55 d5 3e
       -0.14362364 0.5251568 0.22384164 0.4166681
000030 76 12 ac 3e b4 87 b8 3e df 89 7a bc c4 32 77 3a
       0.33607835 0.36041033 -0.01529166 0.0009429867
000040 83 90 71 bd 59 d4 16 3e 3b 10 7e 3e ee 4f 28 3e
       -0.058975708 0.14729442 0.24810879 0.16436741
000050 6d 86 a7 3e d2 8e 5c 3e 56 6d fa bc f3 8f d6 3e
       0.32719746 0.21538857 -0.030569714 0.419067
000060 ab ad b3 3e 32 f0 a8 3e 5e b6 6c 3e 73 50 03 3e
       0.35093436 0.32995754 0.23116443 0.12823658
000070 73 40 65 3e b7 45 99 bc 3f 04 e6 3e f6 7d 9e 3e
       0.22387867 -0.01871 0.44925115 0.30955476
000080 58 53 48 3f 50 22 d0 bd 09 3d 6d 3e d4 45 03 3f
       0.7825217 -0.101627946 0.23167814 0.51278424
000090 c0 c4 68 3e b5 cb 0f 3c 90 35 b3 3e 6b 6d 31 be
       0.22731304 0.008776595 0.35001802 -0.17326896
0000a0 22 ca 73 3e 4b 11 22 3c 8e 8c cc 3e 9c 3e 1a 3d
       0.23807576 0.009891818 0.39950985 0.037657365
0000b0 24 e3 16 40 7e ca 31 bc a6 b9 01 bd 2d 32 32 bd
       2.3576136 -0.010851501 -0.03167119 -0.043504883
0000c0 1e 68 2a 3f b3 ea ed 3e 29 e9 c0 3e b6 59 b5 3e
       0.6656512 0.46468124 0.37677887 0.35420007
0000d0 01 87 11 3e de fa 8d bd 7c 1f 46 3d 00 14 51 3e
       0.14211656 -0.06932615 0.04836987 0.20417786
0000e0 f1 ec cc 3e 58 e0 08 3f 25 f1 8f bd aa a5 a8 3e
       0.40024522 0.5346732 -0.070284165 0.32938892
0000f0 3c 8d 24 3c ea 1b 17 40 ef ce 94 3e e5 bb 6d 3e
       0.0100434385 2.3610787 0.29064128 0.23216207
000100 b3 eb 39 3e 6e 6b df 3e 3c 38 3d 3e a6 e5 0d be
       0.18156318 0.4363665 0.18478483 -0.13857135
000110 ea 21 e0 3c eb 77 14 3e 84 be a8 3e cf 08 18 3e
       0.027359921 0.1449887 0.32957852 0.1484711
000120 c0 da 5c 3e 6d 53 e7 bc fe a2 52 3e cb de dc 3e
       0.21567822 -0.028238023 0.20569989 0.43138728
000130 d0 e5 99 3e da a9 dd 3e c9 51 ec bd 17 58 92 3b
       0.30058146 0.4329365 -0.11539037 0.0044660675
000140 ea 58 55 bd 5e 20 4a 3e 64 0b fa 3d 10 05 0a 3f
       -0.05208675 0.1973891 0.12209204 0.53913975
000150 bd dd 84 be 9b a4 e8 bc 98 19 36 3f 3b 87 97 3e
       -0.25950423 -0.028398803 0.711328 0.2959536
000160 b6 46 e4 3e 2d d7 0c 3e 46 8b 51 3e a3 40 21 3e
       0.44585198 0.13753958 0.20463285 0.15747313
000170 9c 45 33 3e f2 ca 6d 3f 06 a8 fd bd 66 f8 8d 3e
       0.17507023 0.92887795 -0.123855636 0.27728575
000180 40 1c 55 3e 24 71 ed 3e b6 10 eb 3d 83 30 75 3e
       0.20811558 0.46375382 0.11477797 0.23944287
000190 7d 62 4e bd c2 3e 8e 3e c7 b8 7e bd 9c 5a 82 3e
       -0.050386894 0.27782255 -0.062187936 0.25459754
0001a0 12 ec fb 3d c6 f8 86 3e 16 4d d0 3d d0 53 ae 3e
       0.12300886 0.26361674 0.10170953 0.3404832
0001b0 90 0b 0c 3e c4 01 d0 3e f9 05 7e bd 8c 7b a4 3f
       0.13676286 0.40626347 -0.062017415 1.2850204
0001c0 2a 35 4a 3f b0 9b b5 3e 7b e5 bc 3e a8 ca b8 3e
       0.7898737 0.35470343 0.3689383 0.36092114
0001d0 88 ab aa 3e 15 62 ae 3e 93 cd b0 3d 0d 2d 34 bc
       0.33333993 0.34059206 0.0863296 -0.010997069
0001e0 49 76 ee bd 58 62 8b 3e c1 4b 8d 3d 3b fd ea bd
       -0.11643655 0.27223468 0.068992145 -0.11474081
0001f0 bd b0 4f 3d e5 33 5d 3f 4c 8b 98 3e 5b 91 83 3e
       0.05070566 0.8640731 0.29793775 0.25696835
000200 3b 20 c2 3e 6a a8 f9 3e bd d9 cd 3e c4 5b 54 bd
       0.37915215 0.48761302 0.40205184 -0.051845327
000210 23 1c 0d 3f 2d a0 b5 bd 73 ae 37 3f e7 9f 12 3e
       0.5512106 -0.08868442 0.71750563 0.1431881
000220 1c dc 9a 3d 14 09 00 be 5d cd 9c bd 0a e6 89 3f
       0.07561514 -0.12503463 -0.076563574 1.0773327
000230 54 f0 94 3c 9a 04 eb 3e 39 22 dc 3e 0b 6e e1 3e
       0.018181004 0.45901948 0.4299486 0.4402927
000240 72 4a bf 3e 19 26 a1 3e 39 89 f4 3d e8 39 5c 3e
       0.37361485 0.3147438 0.11940236 0.21506464
000250 43 e5 de be c3 b5 c1 3e e7 cc d1 bd 6b 70 1e 3e
       -0.43534288 0.37833986 -0.1024416 0.15472572
000260 e6 0f 10 3f 3c c7 49 3e cb a5 74 3f 53 78 f5 bd
       0.5627426 0.19704908 0.9556548 -0.11985841
000270 a0 43 8a 3f 8c 94 b1 bd 62 2e 20 3f 5f 99 64 3e
       1.0801888 -0.08670911 0.62570775 0.22324131
000280 8a 1d a6 3e 3f d5 d2 3e 65 db 63 3e 74 4f d5 3e
       0.32444412 0.4117832 0.22251661 0.4166218
000290 7b cf e8 3e c6 50 5b 3e 20 d7 52 3f 96 ed 0e 3e
       0.45470795 0.21417531 0.82359505 0.1395782
0002a0 d2 32 ea 3e e4 89 84 bc 40 1a 0b 3f 94 e0 77 3e
       0.45741898 -0.016179033 0.5433693 0.24206764
0002b0 bc 57 02 3f 5a 21 db 3e e9 a4 dc 3c fa b3 b4 3e
       0.5091512 0.42798883 0.026934104 0.3529356
0002c0 b8 d4 82 3e dc b3 9d bb 23 67 3a 3e b1 9c b4 3e
       0.25552917 -0.0048127007 0.18203406 0.35275796
0002d0 62 c7 8c 3e 78 e6 9f 3e a0 01 53 3e d6 a3 90 bd
       0.27495867 0.3123052 0.20606089 -0.07062499
0002e0 c6 12 71 3f 6a 07 8e bd b4 cf c8 bb 0a 0f 53 3f
       0.9416927 -0.06935008 -0.0061282758 0.8244482
0002f0 d0 94 14 3d 56 fe 92 3e c3 b6 40 bd e1 a0 eb 3d
       0.03627473 0.28709668 -0.047049295 0.115052946
000300 ca 3a ab 3e 9f 32 38 3e 63 a4 60 bd 33 d8 7a 3f
       0.3344329 0.1798806 -0.05484427 0.97986144
000310 b4 d4 5a be 34 04 d4 3f ac c1 af 3f b3 8c 09 3e
       -0.21370202 1.6563783 1.3730979 0.13432579
000320 df 00 22 bd 30 f1 6c 3f ef b0 2b 3f bf b5 81 3e
       -0.039551612 0.9255552 0.67066854 0.25333974
000330 56 d2 86 3e 15 a5 56 3d 0f 47 d7 bc a1 5a 58 3e
       0.2633235 0.05240353 -0.026279 0.21128322
000340 79 bc 07 3f f0 fb 13 3d 4c 41 26 3d 82 b8 8c bc
       0.5302196 0.03612894 0.040589616 -0.017177824
000350 88 08 ac 3e 11 5b ca bd 5f 75 df 3e 6f 82 30 3f
       0.3360026 -0.09880651 0.43644235 0.68949026
000360 7a 30 52 bd ba ec bd 3d 75 f2 4f 3e 74 ea b9 3d
       -0.051315762 0.09273668 0.20307334 0.090779215
000370 f9 7e f1 3e c6 f5 4d 3f 6d 68 20 3f 34 5a 8e 3e
       0.47167185 0.80453146 0.6265934 0.27803195
000380 f1 7c 38 3f f6 6e 46 be 19 ed 46 3e d3 41 bf 3e
       0.72065645 -0.19378266 0.19426383 0.37354907
000390 77 aa 70 3e 5d 69 87 3e 2c 6f 13 3f 08 0c 96 3e
       0.23502527 0.26447573 0.5759151 0.29306054
0003a0 11 5a f8 3d 12 8a 03 be b1 b5 4e bd 74 75 80 3e
       0.12126554 -0.12845638 -0.050466243 0.2508961
0003b0 26 67 5b 3e cf 03 19 3f fb b0 72 3e 44 7f 81 3d
       0.21426067 0.59771436 0.23700325 0.06323102
0003c0 56 6b 81 bc 4e 9f 09 3f ed 41 65 3e b5 19 64 3e
       -0.015798252 0.53758705 0.2238843 0.22275431
0003d0 e6 f7 42 3f 36 08 17 3e bc 13 12 3e f3 7c fe 3e
       0.76159513 0.14749226 0.1426534 0.49704704
0003e0 52 32 6b 3e e3 0a 79 3e 18 1e c3 3e a9 4d 5c 3f
       0.22968414 0.24320559 0.38108897 0.86056
0003f0 db 36 02 3f d5 1b 1c 3e af b4 c4 3d c7 2c 06 3f
       0.5086495 0.15244992 0.09604775 0.52412075

l1.bias f4 [8]
000000 42 33 d8 3f b0 d8 45 40 bc 40 5f 40 69 a6 79 40
       1.6890643 3.0913506 3.488326 3.9007819
000010 16 ce 2a 40 8b 51 9b 3f f2 75 24 40 e5 ef f7 3f
       2.6688285 1.213426 2.5696988 1.9370085

l2.weight f4 [8, 8]
000000 b9 df 29 40 90 4a 10 40 31 f5 b7 3f 3e 35 24 40
       2.65428 2.254551 1.4371701 2.5657496
000010 77 87 f8 3f 0f 79 08 40 df 26 25 40 88 26 8c 3f
       1.941634 2.1323888 2.5804975 1.0949259
000020 99 04 c7 3f 18 87 14 40 e0 c5 1e 40 c7 61 26 40
       1.5548278 2.3207455 2.4808273 2.5997179
000030 a9 4c ed be 92 7e 10 40 30 ff 62 3f 5f 72 33 bf
       -0.4634755 2.2577252 0.88670635 -0.7009639
000040 0d 8c 91 3e 2f 59 0d 40 8d fd 92 3f a6 7e 3f 3f
       0.28427163 2.2085683 1.1483628 0.74802625
000050 e1 6c 26 40 88 59 8e bf 9a 52 ec 3f 09 b0 e0 3d
       2.6003954 -1.1121073 1.8462708 0.10971076
000060 f6 f4 af be d8 5c 5c bd 1a 6b 85 be 0f 58 2e be
       -0.34366578 -0.05379948 -0.26058275 -0.17025779
000070 ed 72 5d 3e 27 6e ad bd 35 fe d2 bd 22 54 8c be
       0.21625872 -0.084682755 -0.103023924 -0.27407938
000080 3e 29 d2 be bc 4f 5c 40 07 7b 82 40 6f 32 66 40
       -0.4104709 3.4423666 4.077518 3.5968282
000090 86 cf 3c 40 e5 b2 8d 3f b9 9d b1 3f af 53 f5 3f
       2.9501662 1.1070219 1.3876258 1.9166163
0000a0 53 ed e8 3f 74 fb 0d 40 f6 94 dd 3f b4 c9 ed 3f
       1.8197426 2.2184725 1.7311084 1.857718
0000b0 cb c4 2d 3f f1 e6 60 3e 7f 5a 5b 40 29 ae 98 3f
       0.6787841 0.21963097 3.4273984 1.192815
0000c0 f1 e7 d9 3f be 99 51 be 22 1a c1 3f be a5 ce 3f
       1.7023908 -0.20468804 1.50861 1.614433
0000d0 1b 31 2d 3f 1b 90 bd bd 76 b7 e0 3f c9 d3 0d 40
       0.67653054 -0.092560016 1.7555988 2.2160513
0000e0 f6 db 21 3f f5 81 25 3f b5 85 28 40 91 9d 1f 40
       0.6322626 0.64651424 2.6331608 2.493992
0000f0 38 06 fd be 50 2f 5a bf 58 42 31 40 2f 06 97 3f
       -0.49418807 -0.85228443 2.7696743 1.1798762

l2.bias f4 [8]
000000 61 03 9b 3e bc e5 4b 3f 8a 34 98 3e b2 bb 9c be
       0.30276015 0.7964742 0.29727584 -0.3061195
000010 1d a8 b6 3f ca ea b0 3e 78 68 39 3f a4 81 12 3e
       1.4270054 0.3455413 0.7242503 0.14307266

l3.weight f4 [8, 8]
000000 6d ea 15 3f b5 ae 1d c0 27 dd b2 bf 3b 8d 59 3e
       0.5856083 -2.4637883 -1.397374 0.21245281
000010 f2 32 d1 bf 79 92 36 c0 03 c9 64 3f 75 62 12 c0
       -1.6343672 -2.85269 0.8936922 -2.2872593
000020 0d 64 b7 bf c0 ef 49 c0 6b a3 5b 3f 65 72 7b be
       -1.4327408 -3.1552582 0.8579623 -0.24555357
000030 16 31 9a 3f d1 7d 64 c0 41 fd 04 c0 5b 54 19 c0
       1.204623 -3.5701792 -2.0779574 -2.3957736
000040 6c 9e 6a be 34 58 3d 3f 2b 2e d7 bf 99 f1 a2 bd
       -0.22911996 0.7396271 -1.6810964 -0.07956237
000050 8b d4 c4 be dc 76 89 c0 1c e6 13 c0 c4 53 09 c0
       -0.38443407 -4.295759 -2.3109198 -2.1457376
000060 96 64 b1 bd 41 75 fc 3e b6 bc 74 bf f2 eb 88 bd
       -0.08661763 0.49308208 -0.9560045 -0.06685628
000070 a6 09 4f c0 4b ef 7e bf fb 0b d8 bf 7a c5 16 c0
       -3.234964 -0.9958388 -1.6878656 -2.355803
000080 14 af 06 c0 6c d1 1c c0 84 aa f5 bc 03 32 8a be
       -2.104436 -2.450282 -0.029988535 -0.2699128
000090 f1 00 88 bf a7 88 8f bf 62 97 e4 bf 84 bf ef be
       -1.0625287 -1.1213578 -1.7858698 -0.46825802
0000a0 a4 1d d4 bf 5e e1 50 be c1 0e 45 bf fd 88 87 be
       -1.6571546 -0.20398471 -0.7697564 -0.264717
0000b0 34 9b 14 c0 88 72 a7 bf f8 24 eb bf 8f 89 e1 be
       -2.3219728 -1.3081827 -1.8370657 -0.4405026
0000c0 01 98 ba bf 82 5c 1e c0 84 90 3f be 08 a2 4b 3e
       -1.4577638 -2.4743962 -0.18707472 0.19886029
0000d0 ae ef 56 c0 ba 39 23 3e ee f1 26 3d 68 16 01 bf
       -3.358379 0.1593999 0.040758066 -0.50424814
0000e0 d4 27 49 c0 53 ab e7 bf 27 9a eb bf 40 3b 05 bd
       -3.143056 -1.8099159 -1.8406419 -0.03252721
0000f0 c3 53 fb bd 24 8e 41 c0 92 d7 a5 3e 2f c7 ed 3e
       -0.12271836 -3.0243006 0.3239103 0.46441028

l3.bias f4 [8]
000000 98 32 f8 3e 06 61 0e 3f 10 91 f4 3e 86 98 55 be
       0.484761 0.55616796 0.47766924 -0.20858964
000010 1c 8e 8a bf d7 d0 2b bf 4f 73 7e be ed c3 71 3c
       -1.0824618 -0.6711554 -0.24848674 0.014756185
